…
17/07/07 03:02:51 WARN yarn.Client: Neither spark.yarn.jars nor spark.yarn.archive is set, falling back to uploading libraries under SPARK_HOME.
weixin_captcha_break.py:89: UserWarning: Update your `Model` call to the Keras 2 API: `Model(outputs=[<tf.Tenso..., inputs=Tensor("in...)`
  model = Model(input=input_tensor, outputs=x)
author: justry
Fri Jul  7 03:02:42 2017
5000
8000
____________________________________________________________________________________________________
Layer (type)                     Output Shape          Param #     Connected to                     
====================================================================================================
input_1 (InputLayer)             (None, 53, 130, 3)    0                                            
____________________________________________________________________________________________________
conv2d_1 (Conv2D)                (None, 53, 130, 32)   896         input_1[0][0]                    
____________________________________________________________________________________________________
conv2d_2 (Conv2D)                (None, 51, 128, 32)   9248        conv2d_1[0][0]                   
____________________________________________________________________________________________________
max_pooling2d_1 (MaxPooling2D)   (None, 25, 64, 32)    0           conv2d_2[0][0]                   
____________________________________________________________________________________________________
conv2d_3 (Conv2D)                (None, 25, 64, 64)    18496       max_pooling2d_1[0][0]            
____________________________________________________________________________________________________
conv2d_4 (Conv2D)                (None, 23, 62, 64)    36928       conv2d_3[0][0]                   
____________________________________________________________________________________________________
max_pooling2d_2 (MaxPooling2D)   (None, 11, 31, 64)    0           conv2d_4[0][0]                   
____________________________________________________________________________________________________
conv2d_5 (Conv2D)                (None, 11, 31, 128)   73856       max_pooling2d_2[0][0]            
____________________________________________________________________________________________________
conv2d_6 (Conv2D)                (None, 9, 29, 128)    147584      conv2d_5[0][0]                   
____________________________________________________________________________________________________
max_pooling2d_3 (MaxPooling2D)   (None, 4, 14, 128)    0           conv2d_6[0][0]                   
____________________________________________________________________________________________________
conv2d_7 (Conv2D)                (None, 4, 14, 256)    295168      max_pooling2d_3[0][0]            
____________________________________________________________________________________________________
conv2d_8 (Conv2D)                (None, 2, 12, 256)    590080      conv2d_7[0][0]                   
____________________________________________________________________________________________________
max_pooling2d_4 (MaxPooling2D)   (None, 1, 6, 256)     0           conv2d_8[0][0]                   
____________________________________________________________________________________________________
flatten_1 (Flatten)              (None, 1536)          0           max_pooling2d_4[0][0]            
____________________________________________________________________________________________________
dense_1 (Dense)                  (None, 512)           786944      flatten_1[0][0]                  
____________________________________________________________________________________________________
dropout_1 (Dropout)              (None, 512)           0           dense_1[0][0]                    
____________________________________________________________________________________________________
c1 (Dense)                       (None, 52)            26676       dropout_1[0][0]                  
____________________________________________________________________________________________________
c2 (Dense)                       (None, 52)            26676       dropout_1[0][0]                  
____________________________________________________________________________________________________
c3 (Dense)                       (None, 52)            26676       dropout_1[0][0]                  
______